data.pth (torch, 5015 bytes, 6 tensors)

l1.weight f4 [8, 53]
00000000: 8157 45be ce09 c1bb 96b1 073f d622 98bf
00000010: f16a 2d3e 60e0 ac3e cf24 653f ac52 f13d
00000020: b794 173f e130 a23f d406 903e d06d 243e
00000030: 1e4a 693e 315a debd 6320 3a3f 6d66 663f
00000040: 305c a73e 6dd1 5a3f 2c06 19be 46b5 403e
00000050: fb44 6e3f da5f 673f 89b3 fd3d 5ae2 db3e
00000060: cc15 353e ada7 0f3f 0d85 d3be 0966 1c3b
00000070: f8e5 263f 3008 873c 82da 113e c968 ad3e
00000080: 5f31 c23e 0b7b c73d 9d34 643e b0ea 013f
00000090: d163 463e 9330 a63f c08c 353f 82fd 4c3e
000000a0: 798a 68be 7e7f 3c3e 4b63 c53e 2f80 efbe
000000b0: a7e1 4abe 630a d93d 9531 003f 981c 083f
000000c0: 116f 0a3f 1e52 173f 2ad4 593e 9978 953e
000000d0: a562 f4be 036b 9fbb 0196 643e 8595 123f
000000e0: e164 683f d7c9 0e3e 4c47 bdbe aa81 dd3e
000000f0: 182f 873e a615 80be 02fd 05be 8383 ba3e
00000100: 7fa4 9a3e 42d1 b23e 6dd6 dfbe 8a68 68be
00000110: 2dff 6b3e f800 833e 0236 f4be 8606 793f
00000120: a4b9 f73e f030 f4be ad2e f4be 12c5 17bf
00000130: c4fe d53e daa9 953e d086 653e 2bae 60bf
00000140: a908 9dbe ada7 bfbc 7d4b 473f 5ddf 0b3e
00000150: e46f 273e 7772 e33e c0ff 4c3e cc67 213f
00000160: 958e 44bf df6f 203f f3a2 51bf 9e6f 65bd
00000170: 4eda e93d 3e4c 93be 0cde 483e 4503 b03d
00000180: 7b45 5d3f 67e8 6b3f 23ce 153d 9d0e 953e
00000190: edd6 44bf a65d 9a3e 0dcd 6f3f e260 bd3e
000001a0: 568c 013e f2d6 633f 95a6 7b3f 5a68 333e
000001b0: 576f 74bd 3728 81bf 774e 1b3f ba44 573f
000001c0: f025 a53f c225 923d fe4c 4f3f eb4b 8c3e
000001d0: 59fd ae3d 5cfd 97bd f829 bc3e af1c 48bc
000001e0: 56ca 313f d211 973f dfe6 a23d 6d3b 833f
000001f0: aced 0d3f 34b6 a63e ca24 5f3f 8437 613f
00000200: 8c9a 8c3e 602b 20bd fd1f 05be a002 24be
00000210: 65ef 8bbe 5c78 e9be 3c69 813f cc80 0d3f
00000220: 0c89 64be 1202 723e ef49 e2bd 104d c2bc
00000230: c1b6 a63e b20d 443f ab9d 9b3e 6c68 f23c
00000240: f22c 8d3f b077 1dbc d29e bf3d ac4d 6ebd
00000250: 10fa 1cbe 8738 003f 3414 6b3e cdda 1a3f
00000260: 3fe0 49bc 5ef5 4f3f 0a54 0f3e 725a 923e
00000270: 588c bc3c 7c45 853f ec61 3f3f e955 debe
00000280: fdcd 1c3f e98c 683e f748 f13e 9d5b b9be
00000290: 9936 71be fc94 d0be 5082 a23d 7fb8 41be
000002a0: 7a48 873f ab61 8e3d 1f5d e03e 7bfe 7a3d
000002b0: 8382 1b3f 8727 54be 1235 cbbe 559e d33e
000002c0: de34 c2be debb 6dbe b58b 883d fd02 cabe
000002d0: b502 cbbe 7ba9 213e 8f5a 003f ffac 253e
000002e0: 4e15 d03e dd73 293f 7c8b 2b3f 932a 923d
000002f0: df60 c0be c63c 273e fa6e 8c3e ed98 9b3e
00000300: 1b33 9bbc a4b8 b0bd e408 94be 3436 e5bd
00000310: 3de8 303f 1d7b 15be d085 683d aed0 1f3f
00000320: 5eaf 403d eaaf bd3e 2d2f 9e3c 7087 fabc
00000330: 376f dabe 1e99 d33e 00d5 93be 0f52 a73e
00000340: c2fc dabd a4e9 05bd 7f7d c7be c8df 32bf
00000350: c791 a2be 1d77 3d3f dc2e f8be cef5 70be
00000360: 53ff 713e bd2f fabe 3f48 8dbe 9601 503c
00000370: 145b 083f 87a0 09bf 6148 513d 013b e03d
00000380: 0003 f63b af68 493f 0c2c e53e 475e 8dbe
00000390: e785 fcbb 3122 253f e9c9 88bd 686f a6bd
000003a0: 53cf 2e3f 3b3c 303f 6270 1abe 2ca0 46be
000003b0: 6334 ea3d 1edd 973d e2ef 823f b004 283f
000003c0: d051 d8bd 64a2 ddbe ea41 e2bd 864b b33e
000003d0: 830e 283c e960 aabc f151 b6be deb8 d83d
000003e0: c692 97be 93c7 0dbf 1cd6 97be 1efd 0ebe
000003f0: 8b98 4e3f bcad 00be 6d1b d43e f19c 8bbe
-0.19271661 -0.0058910614 0.5300535 -1.1885631 0.16935326 0.33764935 0.8950929 0.117833465
0.59211296 1.2671167 0.2813021 0.16057515 0.2278218 -0.108570464 0.7270567 0.9000004
0.3268752 0.8547581 -0.1494376 0.1881915 0.93074006 0.9038063 0.12387759 0.4294613
0.17684096 0.5611523 -0.41312447 0.0023864529 0.65194654 0.016483396 0.1424351 0.33869007
0.37928292 0.097402655 0.22285695 0.5074873 0.19374014 1.2983574 0.7091789 0.2001858
-0.22709073 0.1840801 0.38552317 -0.46777484 -0.19812642 0.10597684 0.50075656 0.5316863
0.54075724 0.59109676 0.2127234 0.2919357 -0.4773151 -0.0048650517 0.22322847 0.572594
0.9077893 0.13944183 -0.36968458 0.43262988 0.26403117 -0.25016516 -0.13084796 0.3642846
0.30203626 0.34925276 -0.4371828 -0.22696128 0.2304656 0.25586677 -0.47697455 0.9727558
0.4838382 -0.47693586 -0.4769186 -0.5928508 0.41795933 0.2923115 0.22414708 -0.8776576
-0.3067067 -0.023395384 0.7784956 0.13659425 0.16351277 0.44423267 0.20019436 0.63049006
-0.7678006 0.626707 -0.81889266 -0.05601465 0.114185914 -0.28769106 0.19615954 0.085943736
0.86434144 0.9215149 0.03657354 0.29112712 -0.7689045 0.30149573 0.9367226 0.36987978
0.1265119 0.88999856 0.9830106 0.17520276 -0.059676494 -1.0090398 0.606666 0.84089243
1.2902203 0.07136108 0.80976856 0.2740167 0.08544416 -0.07421371 0.3675077 -0.01221387
0.69449365 1.1802313 0.079541914 1.025251 0.55440784 0.32560885 0.8716551 0.87975335
0.2746166 -0.039103866 -0.13000484 -0.16016626 -0.2733108 -0.4559964 1.011024 0.55274653
-0.22317904 0.23633602 -0.11049258 -0.023718387 0.32561305 0.765834 0.3039373 0.029590808
1.1029341 -0.009611055 0.093564644 -0.058179542 -0.15329766 0.50086254 0.22956926 0.60490113
-0.012321531 0.81233776 0.13996902 0.2858463 0.02301614 1.041183 0.7475879 -0.4342492
0.61251813 0.22710003 0.4712598 -0.36202708 -0.23555984 -0.40738666 0.079350114 -0.18918036
1.0568993 0.069522224 0.43821046 0.061277848 0.6074602 -0.20718203 -0.39688927 0.41331735
-0.3793096 -0.23216197 0.06667272 -0.39455405 -0.39650503 0.15787308 0.5013818 0.16179274
0.40641254 0.6619242 0.6700971 0.07137027 -0.37573907 0.16331777 0.27428418 0.3039011
-0.018945267 -0.086289674 -0.28913033 -0.11191979 0.6910437 -0.14597745 0.05676824 0.62427795
0.047042243 0.37048274 0.019309605 -0.03058216 -0.42662975 0.41327757 -0.28873444 0.32679793
-0.10692741 -0.03269352 -0.38962933 -0.69872713 -0.31751844 0.7400988 -0.4847325 -0.23531267
0.23632555 -0.48864546 -0.27594182 0.012695691 0.53263974 -0.5376057 0.051094417 0.10948754
0.007507682 0.7867536 0.44760168 -0.2761099 -0.007706392 0.64505297 -0.06679136 -0.08126718
0.682851 0.68841904 -0.15081933 -0.19397038 0.11435773 0.07415222 1.0229456 0.6563215
-0.105624795 -0.43287957 -0.11047728 0.35018557 0.010257366 -0.020798163 -0.3560939 0.105821356
-0.29604167 -0.5538265 -0.2965554 -0.13963744 0.8070151 -0.12566274 0.41427174 -0.27268174

l1.bias f4 [8]
00000000: 0da6 093f bb37 f33e 18b0 8b3f 06d8 c93e
00000010: 84bc 8c3e 81bf 053f 6707 ac3e b53d 1b3f
0.53769 0.47503456 1.0913115 0.39422625 0.27487576 0.52245337 0.33599398 0.6064103

l2.weight f4 [8, 8]
00000000: 46d7 cc3d cc4d b43f ed7e 303d 4f49 b03e
00000010: 5dc6 a6bf 6c2f c43e 201f abbf 82c9 c13f
00000020: dd07 e23e 8e0d adbd 5745 1f3e 017c b93f
00000030: 76a2 e33e e7bf ac3f a377 3fbf 4b75 9a3f
00000040: aeb4 833f b927 573f cc07 d4be 2f9c b83f
00000050: 8205 30bf 8f88 99be 5ff0 633f bf44 a2be
00000060: 7ed4 133f b7e2 a23e 6370 ac3e 3d77 1b3f
00000070: 7313 92be db9b 62bf a0f9 ac3e a4b9 e43e
00000080: 30fe cb3f 49fd 65bf 3ba1 6e3f 06f5 f7be
00000090: 2d6f 8f3e f3b5 593f 1230 983f dc5c 05bf
000000a0: b37c 10be 67f7 d5bd 765e 5bbc 0bd0 15be
000000b0: e832 6c3d 8c30 7ebe 40e2 b4bd 68ed 4b3e
000000c0: de8b e5bd fde9 ac3f 1861 983f 1b28 a9bf
000000d0: 1bd3 ef3d 1d92 71bf db56 113f 6e45 703f
000000e0: ac4c 383f 096a d13e 6b42 3d3e 7df1 993e
000000f0: 5859 233c 01a9 bfbe fab5 ab3f 8938 4cbf
0.10001998 1.4086242 0.043089796 0.3443093 -1.3029286 0.3831743 -1.3368874 1.513962
0.44146624 -0.08449851 0.15553795 1.4490968 0.44459885 1.3496064 -0.74791926 1.2067045
1.0289514 0.84044987 -0.414122 1.4422663 -0.68758404 -0.29986998 0.8903865 -0.31693074
0.5774611 0.31813595 0.33679494 0.6072882 -0.28530464 -0.88519067 0.337842 0.44672883
1.5936947 -0.8983961 0.9321477 -0.48429126 0.28014508 0.8504326 1.188967 -0.5209482
-0.14110069 -0.10447579 -0.01338922 -0.14630143 0.057665735 -0.24823207 -0.08832216 0.19914782
-0.11208318 1.3508908 1.1904631 -1.3215364 0.11710187 -0.94363576 0.56773156 0.9385594
0.7199199 0.4090121 0.18482368 0.30067053 0.009970032 -0.37433627 1.341491 -0.79773766

l2.bias f4 [8]
00000000: f276 173f bdf9 393f f480 d4be bd77 c8be
00000010: e960 1e3f b207 94be 46d4 353f 32a0 643e
0.5916587 0.72646695 -0.41504633 -0.39153853 0.61866623 -0.2891212 0.7102703 0.22326735

l3.weight f4 [8, 8]
00000000: 4a33 a7bf 527a b8bf 7106 8f3e 6d18 0c3e
00000010: f66c 753d 1e8e 16be 954a 133f 5fe2 223f
00000020: 4bcf 793f 0d4c b73e 7740 59bd 7e71 90bf
00000030: adb0 cfbf 4222 75be 5dcc 8cbf 9df8 c8bf
00000040: 1b69 633d e0b5 da3d f458 6a3e e31e 943e
00000050: 2df9 94bd 3e15 613c 3e35 b0bf abc4 26bf
00000060: f142 84bf b5bf 563f b78c 47bf e833 b7bf
00000070: 9ac3 963e a720 373d af27 a3bf 9c38 10c0
00000080: 8e37 3e3e 8c96 92bd 24af b8bf 1823 b4be
00000090: 4a3a 2a3e 42c8 0e3e 795e ec3e 9bed 8ebf
000000a0: 5835 edbf 7de1 45be 0cb9 80bf 326c 16bf
000000b0: 646b 5b3f 4a94 23be 448f b43d efa5 b0bd
000000c0: 6c24 a4bf 6ac7 31bf 6e3e 3a3f dcea da3d
000000d0: dcc2 943e 65c4 9ebe 15f6 a2bf e1c3 0a3f
000000e0: 63f0 b83e ae2b f1bd aff4 46bf cb52 ba3e
000000f0: d3be e3bf 70ae 28be 4b48 413f beb2 c7bf
-1.3062527 -1.4412329 0.27934602 0.13681193 0.059918366 -0.14702651 0.5753568 0.63626665
0.9758193 0.3580021 -0.053039994 -1.1284635 -1.6225792 -0.2393885 -1.0999867 -1.5700871
0.05552016 0.10679221 0.22885495 0.28929815 -0.07274089 0.013737975 -1.3766248 -0.6514384
-1.0332929 0.8388627 -0.7794909 -1.4312716 0.29446107 0.044708874 -1.2746485 -2.2534552
0.1857588 -0.07157621 -1.4428449 -0.35183024 0.16623798 0.1394358 0.46165827 -1.1166261
-1.8531904 -0.19324298 -1.0056472 -0.5875884 0.8571074 -0.15974537 0.08816388 -0.08625399
-1.2823615 -0.69444907 0.7275151 0.10689327 0.29054916 -0.31009212 -1.2731348 0.5420514
0.361209 -0.11775909 -0.7771711 0.3639129 -1.779261 -0.16472793 0.75500935 -1.5601423

l3.bias f4 [8]
00000000: 89b5 c13d edd1 093e e536 c9be 2190 903e
00000010: f0ef d1be c5c4 043f 40c7 84be 052e ff3b
0.09458453 0.13458987 -0.39299694 0.28234962 -0.4100337 0.51862746 -0.25933266 0.0077874684
